…
I0523 15:43:36.611205 2712679360 layer_factory.hpp:77] Creating layer cifar
I0523 15:43:36.611467 2712679360 db_lmdb.cpp:35] Opened lmdb examples/cifar10/cifar10_train_lmdb
I0523 15:43:36.611524 2712679360 net.cpp:84] Creating Layer cifar
I0523 15:43:36.611531 2712679360 net.cpp:380] cifar -&gt; data
I0523 15:43:36.611549 2712679360 net.cpp:380] cifar -&gt; label
I0523 15:43:36.611565 2712679360 data_transformer.cpp:25] Loading mean file from: examples/cifar10/mean.binaryproto
I0523 15:43:36.611686 2712679360 data_layer.cpp:45] output data size: 100,3,32,32
I0523 15:43:36.617992 2712679360 net.cpp:122] Setting up cifar
I0523 15:43:36.618022 2712679360 net.cpp:129] Top shape: 100 3 32 32 (307200)
I0523 15:43:36.618028 2712679360 net.cpp:129] Top shape: 100 (100)
I0523 15:43:36.618032 2712679360 net.cpp:137] Memory required for data: 1229200
I0523 15:43:36.618041 2712679360 layer_factory.hpp:77] Creating layer conv1
I0523 15:43:36.618052 2712679360 net.cpp:84] Creating Layer conv1
I0523 15:43:36.618057 2712679360 net.cpp:406] conv1 &lt;- data
I0523 15:43:36.618063 2712679360 net.cpp:380] conv1 -&gt; conv1
I0523 15:43:36.618175 2712679360 net.cpp:122] Setting up conv1
I0523 15:43:36.618180 2712679360 net.cpp:129] Top shape: 100 32 32 32 (3276800)
I0523 15:43:36.618185 2712679360 net.cpp:137] Memory required for data: 14336400
I0523 15:43:36.618192 2712679360 layer_factory.hpp:77] Creating layer pool1
I0523 15:43:36.618199 2712679360 net.cpp:84] Creating Layer pool1
I0523 15:43:36.618202 2712679360 net.cpp:406] pool1 &lt;- conv1
I0523 15:43:36.618206 2712679360 net.cpp:380] pool1 -&gt; pool1
I0523 15:43:36.618216 2712679360 net.cpp:122] Setting up pool1
I0523 15:43:36.618219 2712679360 net.cpp:129] Top shape: 100 32 16 16 (819200)
I0523 15:43:36.618224 2712679360 net.cpp:137] Memory required for data: 17613200
I0523 15:43:36.618228 2712679360 layer_factory.hpp:77] Creating layer relu1
I0523 15:43:36.618234 2712679360 net.cpp:84] Creating Layer relu1
I0523 15:43:36.618238 2712679360 net.cpp:406] relu1 &lt;- pool1
I0523 15:43:36.618242 2712679360 net.cpp:367] relu1 -&gt; pool1 (in-place)
I0523 15:43:36.618247 2712679360 net.cpp:122] Setting up relu1
I0523 15:43:36.618250 2712679360 net.cpp:129] Top shape: 100 32 16 16 (819200)
I0523 15:43:36.618255 2712679360 net.cpp:137] Memory required for data: 20890000
I0523 15:43:36.618263 2712679360 layer_factory.hpp:77] Creating layer conv2
I0523 15:43:36.618273 2712679360 net.cpp:84] Creating Layer conv2
I0523 15:43:36.618276 2712679360 net.cpp:406] conv2 &lt;- pool1
I0523 15:43:36.618281 2712679360 net.cpp:380] conv2 -&gt; conv2
I0523 15:43:36.618585 2712679360 net.cpp:122] Setting up conv2
I0523 15:43:36.618592 2712679360 net.cpp:129] Top shape: 100 32 16 16 (819200)
I0523 15:43:36.618597 2712679360 net.cpp:137] Memory required for data: 24166800
I0523 15:43:36.618602 2712679360 layer_factory.hpp:77] Creating layer relu2
I0523 15:43:36.618607 2712679360 net.cpp:84] Creating Layer relu2
I0523 15:43:36.618609 2712679360 net.cpp:406] relu2 &lt;- conv2
I0523 15:43:36.618614 2712679360 net.cpp:367] relu2 -&gt; conv2 (in-place)
I0523 15:43:36.618619 2712679360 net.cpp:122] Setting up relu2
I0523 15:43:36.618623 2712679360 net.cpp:129] Top shape: 100 32 16 16 (819200)
I0523 15:43:36.618628 2712679360 net.cpp:137] Memory required for data: 27443600
I0523 15:43:36.618630 2712679360 layer_factory.hpp:77] Creating layer pool2
I0523 15:43:36.618634 2712679360 net.cpp:84] Creating Layer pool2
I0523 15:43:36.618638 2712679360 net.cpp:406] pool2 &lt;- conv2
I0523 15:43:36.618643 2712679360 net.cpp:380] pool2 -&gt; pool2
I0523 15:43:36.618647 2712679360 net.cpp:122] Setting up pool2
I0523 15:43:36.618654 2712679360 net.cpp:129] Top shape: 100 32 8 8 (204800)
I0523 15:43:36.618662 2712679360 net.cpp:137] Memory required for data: 28262800
I0523 15:43:36.618669 2712679360 layer_factory.hpp:77] Creating layer conv3
I0523 15:43:36.618680 2712679360 net.cpp:84] Creating Layer conv3
I0523 15:43:36.618685 2712679360 net.cpp:406] conv3 &lt;- pool2
I0523 15:43:36.618695 2712679360 net.cpp:380] conv3 -&gt; conv3
I0523 15:43:36.619361 2712679360 net.cpp:122] Setting up conv3
I0523 15:43:36.619372 2712679360 net.cpp:129] Top shape: 100 64 8 8 (409600)
I0523 15:43:36.619379 2712679360 net.cpp:137] Memory required for data: 29901200
I0523 15:43:36.619385 2712679360 layer_factory.hpp:77] Creating layer relu3
I0523 15:43:36.619390 2712679360 net.cpp:84] Creating Layer relu3
I0523 15:43:36.619393 2712679360 net.cpp:406] relu3 &lt;- conv3
I0523 15:43:36.619398 2712679360 net.cpp:367] relu3 -&gt; conv3 (in-place)
I0523 15:43:36.619403 2712679360 net.cpp:122] Setting up relu3
I0523 15:43:36.619447 2712679360 net.cpp:129] Top shape: 100 64 8 8 (409600)
I0523 15:43:36.619459 2712679360 net.cpp:137] Memory required for data: 31539600
I0523 15:43:36.619467 2712679360 layer_factory.hpp:77] Creating layer pool3
I0523 15:43:36.619477 2712679360 net.cpp:84] Creating Layer pool3
I0523 15:43:36.619484 2712679360 net.cpp:406] pool3 &lt;- conv3
I0523 15:43:36.619493 2712679360 net.cpp:380] pool3 -&gt; pool3
I0523 15:43:36.619505 2712679360 net.cpp:122] Setting up pool3
I0523 15:43:36.619513 2712679360 net.cpp:129] Top shape: 100 64 4 4 (102400)
I0523 15:43:36.619523 2712679360 net.cpp:137] Memory required for data: 31949200
I0523 15:43:36.619529 2712679360 layer_factory.hpp:77] Creating layer ip1
I0523 15:43:36.619539 2712679360 net.cpp:84] Creating Layer ip1
I0523 15:43:36.619546 2712679360 net.cpp:406] ip1 &lt;- pool3
I0523 15:43:36.619555 2712679360 net.cpp:380] ip1 -&gt; ip1
I0523 15:43:36.620586 2712679360 net.cpp:122] Setting up ip1
I0523 15:43:36.620602 2712679360 net.cpp:129] Top shape: 100 64 (6400)
I0523 15:43:36.620607 2712679360 net.cpp:137] Memory required for data: 31974800
I0523 15:43:36.620613 2712679360 layer_factory.hpp:77] Creating layer ip2
I0523 15:43:36.620620 2712679360 net.cpp:84] Creating Layer ip2
I0523 15:43:36.620625 2712679360 net.cpp:406] ip2 &lt;- ip1
I0523 15:43:36.620630 2712679360 net.cpp:380] ip2 -&gt; ip2
I0523 15:43:36.620649 2712679360 net.cpp:122] Setting up ip2
I0523 15:43:36.620656 2712679360 net.cpp:129] Top shape: 100 10 (1000)
I0523 15:43:36.620662 2712679360 net.cpp:137] Memory required for data: 31978800
I0523 15:43:36.620673 2712679360 layer_factory.hpp:77] Creating layer loss
I0523 15:43:36.620682 2712679360 net.cpp:84] Creating Layer loss
I0523 15:43:36.620689 2712679360 net.cpp:406] loss &lt;- ip2
I0523 15:43:36.620697 2712679360 net.cpp:406] loss &lt;- label
I0523 15:43:36.620703 2712679360 net.cpp:380] loss -&gt; loss
…
I0523 15:43:36.621821 2712679360 layer_factory.hpp:77] Creating layer cifar
I0523 15:43:36.621913 2712679360 db_lmdb.cpp:35] Opened lmdb examples/cifar10/cifar10_test_lmdb
I0523 15:43:36.621933 2712679360 net.cpp:84] Creating Layer cifar
I0523 15:43:36.621943 2712679360 net.cpp:380] cifar -&gt; data
I0523 15:43:36.621950 2712679360 net.cpp:380] cifar -&gt; label
I0523 15:43:36.621958 2712679360 data_transformer.cpp:25] Loading mean file from: examples/cifar10/mean.binaryproto
I0523 15:43:36.622017 2712679360 data_layer.cpp:45] output data size: 100,3,32,32
I0523 15:43:36.624790 2712679360 net.cpp:122] Setting up cifar
I0523 15:43:36.624822 2712679360 net.cpp:129] Top shape: 100 3 32 32 (307200)
I0523 15:43:36.624830 2712679360 net.cpp:129] Top shape: 100 (100)
I0523 15:43:36.624835 2712679360 net.cpp:137] Memory required for data: 1229200
I0523 15:43:36.624840 2712679360 layer_factory.hpp:77] Creating layer label_cifar_1_split
I0523 15:43:36.624851 2712679360 net.cpp:84] Creating Layer label_cifar_1_split
I0523 15:43:36.624856 2712679360 net.cpp:406] label_cifar_1_split &lt;- label
I0523 15:43:36.624862 2712679360 net.cpp:380] label_cifar_1_split -&gt; label_cifar_1_split_0
I0523 15:43:36.624869 2712679360 net.cpp:380] label_cifar_1_split -&gt; label_cifar_1_split_1
I0523 15:43:36.624876 2712679360 net.cpp:122] Setting up label_cifar_1_split
I0523 15:43:36.624878 2712679360 net.cpp:129] Top shape: 100 (100)
I0523 15:43:36.624882 2712679360 net.cpp:129] Top shape: 100 (100)
I0523 15:43:36.624886 2712679360 net.cpp:137] Memory required for data: 1230000
I0523 15:43:36.624917 2712679360 layer_factory.hpp:77] Creating layer conv1
I0523 15:43:36.624927 2712679360 net.cpp:84] Creating Layer conv1
I0523 15:43:36.624930 2712679360 net.cpp:406] conv1 &lt;- data
I0523 15:43:36.624935 2712679360 net.cpp:380] conv1 -&gt; conv1
I0523 15:43:36.624987 2712679360 net.cpp:122] Setting up conv1
I0523 15:43:36.624991 2712679360 net.cpp:129] Top shape: 100 32 32 32 (3276800)
I0523 15:43:36.624996 2712679360 net.cpp:137] Memory required for data: 14337200
I0523 15:43:36.625002 2712679360 layer_factory.hpp:77] Creating layer pool1
I0523 15:43:36.625008 2712679360 net.cpp:84] Creating Layer pool1
I0523 15:43:36.625011 2712679360 net.cpp:406] pool1 &lt;- conv1
I0523 15:43:36.625015 2712679360 net.cpp:380] pool1 -&gt; pool1
I0523 15:43:36.625022 2712679360 net.cpp:122] Setting up pool1
I0523 15:43:36.625026 2712679360 net.cpp:129] Top shape: 100 32 16 16 (819200)
I0523 15:43:36.625031 2712679360 net.cpp:137] Memory required for data: 17614000
I0523 15:43:36.625036 2712679360 layer_factory.hpp:77] Creating layer relu1
I0523 15:43:36.625041 2712679360 net.cpp:84] Creating Layer relu1
I0523 15:43:36.625043 2712679360 net.cpp:406] relu1 &lt;- pool1
I0523 15:43:36.625048 2712679360 net.cpp:367] relu1 -&gt; pool1 (in-place)
I0523 15:43:36.625053 2712679360 net.cpp:122] Setting up relu1
I0523 15:43:36.625056 2712679360 net.cpp:129] Top shape: 100 32 16 16 (819200)
I0523 15:43:36.625061 2712679360 net.cpp:137] Memory required for data: 20890800
I0523 15:43:36.625064 2712679360 layer_factory.hpp:77] Creating layer conv2
I0523 15:43:36.625071 2712679360 net.cpp:84] Creating Layer conv2
I0523 15:43:36.625074 2712679360 net.cpp:406] conv2 &lt;- pool1
I0523 15:43:36.625084 2712679360 net.cpp:380] conv2 -&gt; conv2
I0523 15:43:36.625396 2712679360 net.cpp:122] Setting up conv2
I0523 15:43:36.625402 2712679360 net.cpp:129] Top shape: 100 32 16 16 (819200)
I0523 15:43:36.625407 2712679360 net.cpp:137] Memory required for data: 24167600
I0523 15:43:36.625412 2712679360 layer_factory.hpp:77] Creating layer relu2
I0523 15:43:36.625417 2712679360 net.cpp:84] Creating Layer relu2
I0523 15:43:36.625422 2712679360 net.cpp:406] relu2 &lt;- conv2
I0523 15:43:36.625425 2712679360 net.cpp:367] relu2 -&gt; conv2 (in-place)
I0523 15:43:36.625429 2712679360 net.cpp:122] Setting up relu2
I0523 15:43:36.625433 2712679360 net.cpp:129] Top shape: 100 32 16 16 (819200)
I0523 15:43:36.625437 2712679360 net.cpp:137] Memory required for data: 27444400
I0523 15:43:36.625440 2712679360 layer_factory.hpp:77] Creating layer pool2
I0523 15:43:36.625445 2712679360 net.cpp:84] Creating Layer pool2
I0523 15:43:36.625448 2712679360 net.cpp:406] pool2 &lt;- conv2
I0523 15:43:36.625452 2712679360 net.cpp:380] pool2 -&gt; pool2
I0523 15:43:36.625458 2712679360 net.cpp:122] Setting up pool2
I0523 15:43:36.625460 2712679360 net.cpp:129] Top shape: 100 32 8 8 (204800)
I0523 15:43:36.625464 2712679360 net.cpp:137] Memory required for data: 28263600
I0523 15:43:36.625468 2712679360 layer_factory.hpp:77] Creating layer conv3
I0523 15:43:36.625474 2712679360 net.cpp:84] Creating Layer conv3
I0523 15:43:36.625479 2712679360 net.cpp:406] conv3 &lt;- pool2
I0523 15:43:36.625483 2712679360 net.cpp:380] conv3 -&gt; conv3
I0523 15:43:36.626077 2712679360 net.cpp:122] Setting up conv3
I0523 15:43:36.626083 2712679360 net.cpp:129] Top shape: 100 64 8 8 (409600)
I0523 15:43:36.626088 2712679360 net.cpp:137] Memory required for data: 29902000
I0523 15:43:36.626093 2712679360 layer_factory.hpp:77] Creating layer relu3
I0523 15:43:36.626098 2712679360 net.cpp:84] Creating Layer relu3
I0523 15:43:36.626101 2712679360 net.cpp:406] relu3 &lt;- conv3
I0523 15:43:36.626106 2712679360 net.cpp:367] relu3 -&gt; conv3 (in-place)
I0523 15:43:36.626111 2712679360 net.cpp:122] Setting up relu3
I0523 15:43:36.626113 2712679360 net.cpp:129] Top shape: 100 64 8 8 (409600)
I0523 15:43:36.626117 2712679360 net.cpp:137] Memory required for data: 31540400
I0523 15:43:36.626121 2712679360 layer_factory.hpp:77] Creating layer pool3
I0523 15:43:36.626126 2712679360 net.cpp:84] Creating Layer pool3
I0523 15:43:36.626129 2712679360 net.cpp:406] pool3 &lt;- conv3
I0523 15:43:36.626145 2712679360 net.cpp:380] pool3 -&gt; pool3
I0523 15:43:36.626152 2712679360 net.cpp:122] Setting up pool3
I0523 15:43:36.626154 2712679360 net.cpp:129] Top shape: 100 64 4 4 (102400)
I0523 15:43:36.626159 2712679360 net.cpp:137] Memory required for data: 31950000
I0523 15:43:36.626163 2712679360 layer_factory.hpp:77] Creating layer ip1
I0523 15:43:36.626168 2712679360 net.cpp:84] Creating Layer ip1
I0523 15:43:36.626173 2712679360 net.cpp:406] ip1 &lt;- pool3
I0523 15:43:36.626176 2712679360 net.cpp:380] ip1 -&gt; ip1
I0523 15:43:36.626969 2712679360 net.cpp:122] Setting up ip1
I0523 15:43:36.626981 2712679360 net.cpp:129] Top shape: 100 64 (6400)
I0523 15:43:36.626986 2712679360 net.cpp:137] Memory required for data: 31975600
I0523 15:43:36.626992 2712679360 layer_factory.hpp:77] Creating layer ip2
I0523 15:43:36.626999 2712679360 net.cpp:84] Creating Layer ip2
I0523 15:43:36.627003 2712679360 net.cpp:406] ip2 &lt;- ip1
I0523 15:43:36.627008 2712679360 net.cpp:380] ip2 -&gt; ip2
I0523 15:43:36.627024 2712679360 net.cpp:122] Setting up ip2
I0523 15:43:36.627028 2712679360 net.cpp:129] Top shape: 100 10 (1000)
I0523 15:43:36.627032 2712679360 net.cpp:137] Memory required for data: 31979600
I0523 15:43:36.627039 2712679360 layer_factory.hpp:77] Creating layer ip2_ip2_0_split
I0523 15:43:36.627046 2712679360 net.cpp:84] Creating Layer ip2_ip2_0_split
I0523 15:43:36.627053 2712679360 net.cpp:406] ip2_ip2_0_split &lt;- ip2
I0523 15:43:36.627059 2712679360 net.cpp:380] ip2_ip2_0_split -&gt; ip2_ip2_0_split_0
I0523 15:43:36.627068 2712679360 net.cpp:380] ip2_ip2_0_split -&gt; ip2_ip2_0_split_1
I0523 15:43:36.627076 2712679360 net.cpp:122] Setting up ip2_ip2_0_split
I0523 15:43:36.627081 2712679360 net.cpp:129] Top shape: 100 10 (1000)
I0523 15:43:36.627085 2712679360 net.cpp:129] Top shape: 100 10 (1000)
I0523 15:43:36.627089 2712679360 net.cpp:137] Memory required for data: 31987600
I0523 15:43:36.627094 2712679360 layer_factory.hpp:77] Creating layer accuracy
I0523 15:43:36.627099 2712679360 net.cpp:84] Creating Layer accuracy
I0523 15:43:36.627102 2712679360 net.cpp:406] accuracy &lt;- ip2_ip2_0_split_0
I0523 15:43:36.627106 2712679360 net.cpp:406] accuracy &lt;- label_cifar_1_split_0
…
